…
6ba61.pth\n"]},{"output_type":"stream","name":"stderr","text":["100%|██████████| 97.8M/97.8M [00:00<00:00, 149MB/s]\n"]}]},{"cell_type":"code","source":["#훈련된 ResNet 모델의 구조 확인\n","print(pretrained_model)"],"metadata":{"id":"EacSgaAW4YW1","colab":{"base_uri":"https://localhost:8080/"},"executionInfo":{"status":"ok","timestamp":1773318028369,"user_tz":-540,"elapsed":8,"user":{"displayName":"‎이재린(엘텍공과대학 소프트웨어학부)","userId":"12335003210996307521"}},"outputId":"a59e5533-1de6-4231-b81c-fd0ce899237f"},"execution_count":16,"outputs":[{"output_type":"stream","name":"stdout","text":["ResNet(\n","  (conv1): Conv2d(3, 64, kernel_size=(7, 7), stride=(2, 2), padding=(3, 3), bias=False)\n","  (bn1): BatchNorm2d(64, eps=1e-05, momentum=0.1, affine=True, track_running_stats=True)\n","  (relu): ReLU(inplace=True)\n","  (maxpool): MaxPool2d(kernel_size=3, stride=2, padding=1, dilation=1, ceil_mode=False)\n","  (layer1): Sequential(\n","    (0): Bottleneck(\n","      (conv1): Conv2d(64, 64, kernel_size=(1, 1), stride=(1, 1), bias=False)\n","      (bn1): BatchNorm2d(64, eps=1e-05, momentum=0.1, affine=True, track_running_stats=True)\n","      (conv2): Conv2d(64, 64, kernel_size=(3, 3), stride=(1, 1), padding=(1, 1), bias=False)\n","      (bn2): BatchNorm2d(64, eps=1e-05, momentum=0.1, affine=True, track_running_stats=True)\n","      (conv3): Conv2d(64, 256, kernel_size=(1, 1), stride=(1, 1), bias=False)\n","      (bn3): BatchNorm2d(256, eps=1e-05, momentum=0.1, affine=True, track_running_stats=True)\n","      (relu): ReLU(inplace=True)\n","      (downsample): Sequential(\n","        (0): Conv2d(64, 256, kernel_size=(1, 1), stride=(1, 1), bias=False)\n","        (1): BatchNorm2d(256, eps=1e-05, momentum=0.1, affine=True, track_running_stats=True)\n","      )\n","    )\n","    (1): Bottleneck(\n","      (conv1): Conv2d(256, 64, kernel_size=(1, 1), stride=(1, 1), bias=False)\n","      (bn1): BatchNorm2d(64, eps=1e-05, momentum=0.1, affine=True, track_running_stats=True)\n","      (conv2): Conv2d(64, 64, kernel_size=(3, 3), stride=(1, 1), padding=(1, 1), bias=False)\n","      (bn2): BatchNorm2d(64, eps=1e-05, momentum=0.1, affine=True, track_running_stats=True)\n","      (conv3): Conv2d(64, 256, kernel_size=(1, 1), stride=(1, 1), bias=False)\n","      (bn3): BatchNorm2d(256, eps=1e-05, momentum=0.1, affine=True, track_running_stats=True)\n","      (relu): ReLU(inplace=True)\n","    )\n","    (2): Bottleneck(\n","      (conv1): Conv2d(256, 64, kernel_size=(1, 1), stride=(1, 1), bias=False)\n","      (bn1): BatchNorm2d(64, eps=1e-05, momentum=0.1, affine=True, track_running_stats=True)\n","      (conv2): Conv2d(64, 64, kernel_size=(3, 3), stride=(1, 1), padding=(1, 1), bias=False)\n","      (bn2): BatchNorm2d(64, eps=1e-05, momentum=0.1, affine=True, track_running_stats=True)\n","      (conv3): Conv2d(64, 256, kernel_size=(1, 1), stride=(1, 1), bias=False)\n","      (bn3): BatchNorm2d(256, eps=1e-05, momentum=0.1, affine=True, track_running_stats=True)\n","      (relu): ReLU(inplace=True)\n","    )\n","  )\n","  (layer2): Sequential(\n","    (0): Bottleneck(\n","      (conv1): Conv2d(256, 128, kernel_size=(1, 1), stride=(1, 1), bias=False)\n","      (bn1): BatchNorm2d(128, eps=1e-05, momentum=0.1, affine=True, track_running_stats=True)\n","      (conv2): Conv2d(128, 128, kernel_size=(3, 3), stride=(2, 2), padding=(1, 1), bias=False)\n","      (bn2): BatchNorm2d(128, eps=1e-05, momentum=0.1, affine=True, track_running_stats=True)\n","      (conv3): Conv2d(128, 512, kernel_size=(1, 1), stride=(1, 1), bias=False)\n","      (bn3): BatchNorm2d(512, eps=1e-05, momentum=0.1, affine=True, track_running_stats=True)\n","      (relu): ReLU(inplace=True)\n","      (downsample): Sequential(\n","        (0): Conv2d(256, 512, kernel_size=(1, 1), stride=(2, 2), bias=False)\n","        (1): BatchNorm2d(512, eps=1e-05, momentum=0.1, affine=True, track_running_stats=True)\n","      )\n","    )\n","    (1): Bottleneck(\n","      (conv1): Conv2d(512, 128, kernel_size=(1, 1), stride=(1, 1), bias=False)\n","      (bn1): BatchNorm2d(128, eps=1e-05, momentum=0.1, affine=True, track_running_stats=True)\n","      (conv2): Conv2d(128, 128, kernel_size=(3, 3), stride=(1, 1), padding=(1, 1), bias=False)\n","      (bn2): BatchNorm2d(128, eps=1e-05, momentum=0.1, affine=True, track_running_stats=True)\n","      (conv3): Conv2d(128, 512, kernel_size=(1, 1), stride=(1, 1), bias=False)\n","      (bn3): BatchNorm2d(512, eps=1e-05, momentum=0.1, affine=True, track_running_stats=True)\n","      (relu): ReLU(inplace=True)\n","    )\n","    (2): Bottleneck(\n","      (conv1): Conv2d(512, 128, kernel_size=(1, 1), stride=(1, 1), bias=False)\n","      (bn1): BatchNorm2d(128, eps=1e-05, momentum=0.1, affine=True, track_running_stats=True)\n","      (conv2): Conv2d(128, 128, kernel_size=(3, 3), stride=(1, 1), padding=(1, 1), bias=False)\n","      (bn2): BatchNorm2d(128, eps=1e-05, momentum=0.1, affine=True, track_running_stats=True)\n","      (conv3): Conv2d(128, 512, kernel_size=(1, 1), stride=(1, 1), bias=False)\n","      (bn3): BatchNorm2d(512, eps=1e-05, momentum=0.1, affine=True, track_running_stats=True)\n","      (relu): ReLU(inplace=True)\n","    )\n","    (3): Bottleneck(\n","      (conv1): Conv2d(512, 128, kernel_size=(1, 1), stride=(1, 1), bias=False)\n","      (bn1): BatchNorm2d(128, eps=1e-05, momentum=0.1, affine=True, track_running_stats=True)\n","      (conv2): Conv2d(128, 128, kernel_size=(3, 3), stride=(1, 1), padding=(1, 1), bias=False)\n","      (bn2): BatchNorm2d(128, eps=1e-05, momentum=0.1, affine=True, track_running_stats=True)\n","      (conv3): Conv2d(128, 512, kernel_size=(1, 1), stride=(1, 1), bias=False)\n","      (bn3): BatchNorm2d(512, eps=1e-05, momentum=0.1, affine=True, track_running_stats=True)\n","      (relu): ReLU(inplace=True)\n","    )\n","  )\n","  (layer3): Sequential(\n","    (0): Bottleneck(\n","      (conv1): Conv2d(512, 256, kernel_size=(1, 1), stride=(1, 1), bias=False)\n","      (bn1): BatchNorm2d(256, eps=1e-05, momentum=0.1, affine=True, track_running_stats=True)\n","      (conv2): Conv2d(256, 256, kernel_size=(3, 3), stride=(2, 2), padding=(1, 1), bias=False)\n","      (bn2): BatchNorm2d(256, eps=1e-05, momentum=0.1, affine=True, track_running_stats=True)\n","      (conv3): Conv2d(256, 1024, kernel_size=(1, 1), stride=(1, 1), bias=False)\n","      (bn3): BatchNorm2d(1024, eps=1e-05, momentum=0.1, affine=True, track_running_stats=True)\n","      (relu): ReLU(inplace=True)\n","      (downsample): Sequential(\n","        (0): Conv2d(512, 1024, kernel_size=(1, 1), stride=(2, 2), bias=False)\n","        (1): BatchNorm2d(1024, eps=1e-05, momentum=0.1, affine=True, track_running_stats=True)\n","      )\n","    )\n","    (1): Bottleneck(\n","      (conv1): Conv2d(1024, 256, kernel_size=(1, 1), stride=(1, 1), bias=False)\n","      (bn1): BatchNorm2d(256, eps=1e-05, momentum=0.1, affine=True, track_running_stats=True)\n","      (conv2): Conv2d(256, 256, kernel_size=(3, 3), stride=(1, 1), padding=(1, 1), bias=False)\n","      (bn2): BatchNorm2d(256, eps=1e-05, momentum=0.1, affine=True, track_running_stats=True)\n","      (conv3): Conv2d(256, 1024, kernel_size=(1, 1), stride=(1, 1), bias=False)\n","      (bn3): BatchNorm2d(1024, eps=1e-05, momentum=0.1, affine=True, track_running_stats=True)\n","      (relu): ReLU(inplace=True)\n","    )\n","    (2): Bottleneck(\n","      (conv1): Conv2d(1024, 256, kernel_size=(1, 1), stride=(1, 1), bias=False)\n","      (bn1): BatchNorm2d(256, eps=1e-05, momentum=0.1, affine=True, track_running_stats=True)\n","      (conv2): Conv2d(256, 256, kernel_size=(3, 3), stride=(1, 1), padding=(1, 1), bias=False)\n","      (bn2): BatchNorm2d(256, eps=1e-05, momentum=0.1, affine=True, track_running_stats=True)\n","      (conv3): Conv2d(256, 1024, kernel_size=(1, 1), stride=(1, 1), bias=False)\n","      (bn3): BatchNorm2d(1024, eps=1e-05, momentum=0.1, affine=True, track_running_stats=True)\n","      (relu): ReLU(inplace=True)\n","    )\n","    (3): Bottleneck(\n","      (conv1): Conv2d(1024, 256, kernel_size=(1, 1), stride=(1, 1), bias=False)\n","      (bn1): BatchNorm2d(256, eps=1e-05, momentum=0.1, affine=True, track_running_stats=True)\n","      (conv2): Conv2d(256, 256, kernel_size=(3, 3), stride=(1, 1), padding=(1, 1), bias=False)\n","      (bn2): BatchNorm2d(256, eps=1e-05, momentum=0.1, affine=True, track_running_stats=True)\n","      (conv3): Conv2d(256, 1024, kernel_size=(1, 1), stride=(1, 1), bias=False)\n","      (bn3): BatchNorm2d(1024, eps=1e-05, momentum=0.1, affine=True, track_running_stats=True)\n","      (relu): ReLU(inplace=True)\n","    )\n","    (4): Bottleneck(\n","      (conv1): Conv2d(1024, 256, kernel_size=(1, 1), stride=(1, 1), bias=False)\n","      (bn1): BatchNorm2d(256, eps=1e-05, momentum=0.1, affine=True, track_running_stats=True)\n","      (conv2): Conv2d(256, 256, kernel_size=(3, 3), stride=(1, 1), padding=(1, 1), bias=False)\n","      (bn2): BatchNorm2d(256, eps=1e-05, momentum=0.1, affine=True, track_running_stats=True)\n","      (conv3): Conv2d(256, 1024, kernel_size=(1, 1), stride=(1, 1), bias=False)\n","      (bn3): BatchNorm2d(1024, eps=1e-05, momentum=0.1, affine=True, track_running_stats=True)\n","      (relu): ReLU(inplace=True)\n","    )\n","    (5): Bottleneck(\n","      (conv1): Conv2d(1024, 256, kernel_size=(1, 1), stride=(1, 1), bias=False)\n","      (bn1): BatchNorm2d(256, eps=1e-05, momentum=0.1, affine=True, track_running_stats=True)\n","      (conv2): Conv2d(256, 256, kernel_size=(3, 3), stride=(1, 1), padding=(1, 1), bias=False)\n","      (bn2): BatchNorm2d(256, eps=1e-05, momentum=0.1, affine=True, track_running_stats=True)\n","      (conv3): Conv2d(256, 1024, kernel_size=(1, 1), stride=(1, 1), bias=False)\n","      (bn3): BatchNorm2d(1024, eps=1e-05, momentum=0.1, affine=True, track_running_stats=True)\n","      (relu): ReLU(inplace=True)\n","    )\n","  )\n","  (layer4): Sequential(\n","    (0): Bottleneck(\n","      (conv1): Conv2d(1024, 512, kernel_size=(1, 1), stride=(1, 1), bias=False)\n","      (bn1): BatchNorm2d(512, eps=1e-05, momentum=0.1, affine=True, track_running_stats=True)\n","      (conv2): Conv2d(512, 512, kernel_size=(3, 3), stride=(2, 2), padding=(1, 1), bias=False)\n","      (bn2): BatchNorm2d(512, eps=1e-05, momentum=0.1, affine=True, track_running_stats=True)\n","      (conv3): Conv2d(512, 2048, kernel_size=(1, 1), stride=(1, 1), bias=False)\n","      (bn3): BatchNorm2d(2048, eps=1e-05, momentum=0.1, affine=True, track_running_stats=True)\n","      (relu): ReLU(inplace=True)\n","      (downsample): Sequential(\n","        (0): Conv2d(1024, 2048, kernel_size=(1, 1), stride=(2, 2), bias=False)\n","        (1): BatchNorm2d(2048, eps=1e-05, momentum=0.1, affine=True, track_running_stats=True)\n","      )\n","    )\n","    (1): Bottleneck(\n","      (conv1): Conv2d(2048, 512, kernel_size=(1, 1), stride=(1, 1), bias=False)\n","      (bn1): BatchNorm2d(512, eps=1e-05, momentum=0.1, affine=True, track_running_stats=True)\n","      (conv2): Conv2d(512, 512, kernel_size=(3, 3), stride=(1, 1), padding=(1, 1), bias=False)\n","      (bn2): BatchNorm2d(512, eps=1e-05, momentum=0.1, affine=True, track_running_stats=True)\n","      (conv3): Conv2d(512, 2048, kernel_size=(1, 1), stride=(1, 1), bias=False)\n","      (bn3): BatchNorm2d(2048, eps=1e-05, momentum=0.1, affine=True, track_running_stats=True)\n","      (relu): ReLU(inplace=True)\n","    )\n","    (2): Bottleneck(\n","      (conv1): Conv2d(2048, 512, kernel_size=(1, 1), stride=(1, 1), bias=False)\n","      (bn1): BatchNorm2d(512, eps=1e-05, momentum=0.1, affine=True, track_running_stats=True)\n","      (conv2): Conv2d(512, 512, kernel_size=(3, 3), stride=(1, 1), padding=(1, 1), bias=False)\n","      (bn2): BatchNorm2d(512, eps=1e-05, momentum=0.1, affine=True, track_running_stats=True)\n","      (conv3): Conv2d(512, 2048, kernel_size=(1, 1), stride=(1, 1), bias=False)\n","      (bn3): BatchNorm2d(2048, eps=1e-05, momentum=0.1, affine=True, track_running_stats=True)\n","      (relu): ReLU(inplace=True)\n","    )\n","  )\n","  (avgpool): AdaptiveAvgPool2d(output_size=(1, 1))\n","  (fc): Linear(in_features=2048, out_features=1000, bias=True)\n",")\n"]}]},{"cell_type":"code","source":["#ResNet50 Config 를 사용한 ResNet 모델 사용\n","\n","OUTPUT_DIM = 2\n","model = ResNet(resnet50_config, OUTPUT_DIM)\n","print(model)"],"metadata":{"id":"vAQytGEo4YTd","colab":{"base_uri":"https://localhost:8080/"},"executionInfo":{"status":"ok","timestamp":1773318031551,"user_tz":-540,"elapsed":160,"user":{"displayName":"‎이재린(엘텍공과대학 소프트웨어학부)","userId":"12335003210996307521"}},"outputId":"a5e998b1-257c-4e2d-f242-584540ef59f8"},"execution_count":17,"outputs":[{"output_type":"stream","name":"stdout","text":["ResNet(\n","  (conv1): Conv2d(3, 64, kernel_size=(7, 7), stride=(2, 2), padding=(3, 3), bias=False)\n","  (bn1): BatchNorm2d(64, eps=1e-05, momentum=0.1, affine=True, track_running_stats=True)\n","  (relu): ReLU(inplace=True)\n","  (maxpool): MaxPool2d(kernel_size=3, stride=2, padding=1, dilation=1, ceil_mode=False)\n","  (layer1): Sequential(\n","    (0): Bottleneck(\n","      (conv1): Conv2d(64, 64, kernel_size=(1, 1), stride=(1, 1), bias=False)\n","      (bn1): BatchNorm2d(64, eps=1e-05, momentum=0.1, affine=True, track_running_stats=True)\n","      (conv2): Conv2d(64, 64, kernel_size=(3, 3), stride=(1, 1), padding=(1, 1), bias=False)\n","      (bn2): BatchNorm2d(64, eps=1e-05, momentum=0.1, affine=True, track_running_stats=True)\n","      (conv3): Conv2d(64, 256, kernel_size=(1, 1), stride=(1, 1), bias=False)\n","      (bn3): BatchNorm2d(256, eps=1e-05, momentum=0.1, affine=True, track_running_stats=True)\n","      (relu): ReLU(inplace=True)\n","      (downsample): Sequential(\n","        (0): Conv2d(64, 256, kernel_size=(1, 1), stride=(1, 1), bias=False)\n","        (1): BatchNorm2d(256, eps=1e-05, momentum=0.1, affine=True, track_running_stats=True)\n","      )\n","    )\n","    (1): Bottleneck(\n","      (conv1): Conv2d(256, 64, kernel_size=(1, 1), stride=(1, 1), bias=False)\n","      (bn1): BatchNorm2d(64, eps=1e-05, momentum=0.1, affine=True, track_running_stats=True)\n","      (conv2): Conv2d(64, 64, kernel_size=(3, 3), stride=(1, 1), padding=(1, 1), bias=False)\n","      (bn2): BatchNorm2d(64, eps=1e-05, momentum=0.1, affine=True, track_running_stats=True)\n","      (conv3): Conv2d(64, 256, kernel_size=(1, 1), stride=(1, 1), bias=False)\n","      (bn3): BatchNorm2d(256, eps=1e-05, momentum=0.1, affine=True, track_running_stats=True)\n","      (relu): ReLU(inplace=True)\n","    )\n","    (2): Bottleneck(\n","      (conv1): Conv2d(256, 64, kernel_size=(1, 1), stride=(1, 1), bias=False)\n","      (bn1): BatchNorm2d(64, eps=1e-05, momentum=0.1, affine=True, track_running_stats=True)\n","      (conv2): Conv2d(64, 64, kernel_size=(3, 3), stride=(1, 1), padding=(1, 1), bias=False)\n","      (bn2): BatchNorm2d(64, eps=1e-05, momentum=0.1, affine=True, track_running_stats=True)\n","      (conv3): Conv2d(64, 256, kernel_size=(1, 1), stride=(1, 1), bias=False)\n","      (bn3): BatchNorm2d(256, eps=1e-05, momentum=0.1, affine=True, track_running_stats=True)\n","      (relu): ReLU(inplace=True)\n","    )\n","  )\n","  (layer2): Sequential(\n","    (0): Bottleneck(\n","      (conv1): Conv2d(256, 128, kernel_size=(1, 1), stride=(1, 1), bias=False)\n","      (bn1): BatchNorm2d(128, eps=1e-05, momentum=0.1, affine=True, track_running_stats=True)\n","      (conv2): Conv2d(128, 128, kernel_size=(3, 3), stride=(1, 1), padding=(1, 1), bias=False)\n","      (bn2): BatchNorm2d(128, eps=1e-05, momentum=0.1, affine=True, track_running_stats=True)\n","      (conv3): Conv2d(128, 512, kernel_size=(1, 1), stride=(1, 1), bias=False)\n","      (bn3): BatchNorm2d(512, eps=1e-05, momentum=0.1, affine=True, track_running_stats=True)\n","      (relu): ReLU(inplace=True)\n","      (downsample): Sequential(\n","        (0): Conv2d(256, 512, kernel_size=(1, 1), stride=(1, 1), bias=False)\n","        (1): BatchNorm2d(512, eps=1e-05, momentum=0.1, affine=True, track_running_stats=True)\n","      )\n","    )\n","    (1): Bottleneck(\n","      (conv1): Conv2d(512, 128, kernel_size=(1, 1), stride=(1, 1), bias=False)\n","      (bn1): BatchNorm2d(128, eps=1e-05, momentum=0.1, affine=True, track_running_stats=True)\n","      (conv2): Conv2d(128, 128, kernel_size=(3, 3), stride=(1, 1), padding=(1, 1), bias=False)\n","      (bn2): BatchNorm2d(128, eps=1e-05, momentum=0.1, affine=True, track_running_stats=True)\n","      (conv3): Conv2d(128, 512, kernel_size=(1, 1), stride=(1, 1), bias=False)\n","      (bn3): BatchNorm2d(512, eps=1e-05, momentum=0.1, affine=True, track_running_stats=True)\n","      (relu): ReLU(inplace=True)\n","    )\n","    (2): Bottleneck(\n","      (conv1): Conv2d(512, 128, kernel_size=(1, 1), stride=(1, 1), bias=False)\n","      (bn1): BatchNorm2d(128, eps=1e-05, momentum=0.1, affine=True, track_running_stats=True)\n","      (conv2): Conv2d(128, 128, kernel_size=(3, 3), stride=(1, 1), padding=(1, 1), bias=False)\n","      (bn2): BatchNorm2d(128, eps=1e-05, momentum=0.1, affine=True, track_running_stats=True)\n","      (conv3): Conv2d(128, 512, kernel_size=(1, 1), stride=(1, 1), bias=False)\n","      (bn3): BatchNorm2d(512, eps=1e-05, momentum=0.1, affine=True, track_running_stats=True)\n","      (relu): ReLU(inplace=True)\n","    )\n","    (3): Bottleneck(\n","      (conv1): Conv2d(512, 128, kernel_size=(1, 1), stride=(1, 1), bias=False)\n","      (bn1): BatchNorm2d(128, eps=1e-05, momentum=0.1, affine=True, track_running_stats=True)\n","      (conv2): Conv2d(128, 128, kernel_size=(3, 3), stride=(1, 1), padding=(1, 1), bias=False)\n","      (bn2): BatchNorm2d(128, eps=1e-05, momentum=0.1, affine=True, track_running_stats=True)\n","      (conv3): Conv2d(128, 512, kernel_size=(1, 1), stride=(1, 1), bias=False)\n","      (bn3): BatchNorm2d(512, eps=1e-05, momentum=0.1, affine=True, track_running_stats=True)\n","      (relu): ReLU(inplace=True)\n","    )\n","  )\n","  (layer3): Sequential(\n","    (0): Bottleneck(\n","      (conv1): Conv2d(512, 256, kernel_size=(1, 1), stride=(1, 1), bias=False)\n","      (bn1): BatchNorm2d(256, eps=1e-05, momentum=0.1, affine=True, track_running_stats=True)\n","      (conv2): Conv2d(256, 256, kernel_size=(3, 3), stride=(1, 1), padding=(1, 1), bias=False)\n","      (bn2): BatchNorm2d(256, eps=1e-05, momentum=0.1, affine=True, track_running_stats=True)\n","      (conv3): Conv2d(256, 1024, kernel_size=(1, 1), stride=(1, 1), bias=False)\n","      (bn3): BatchNorm2d(1024, eps=1e-05, momentum=0.1, affine=True, track_running_stats=True)\n","      (relu): ReLU(inplace=True)\n","      (downsample): Sequential(\n","        (0): Conv2d(512, 1024, kernel_size=(1, 1), stride=(1, 1), bias=False)\n","        (1): BatchNorm2d(1024, eps=1e-05, momentum=0.1, affine=True, track_running_stats=True)\n","      )\n","    )\n","    (1): Bottleneck(\n","      (conv1): Conv2d(1024, 256, kernel_size=(1, 1), stride=(1, 1), bias=False)\n","      (bn1): BatchNorm2d(256, eps=1e-05, momentum=0.1, affine=True, track_running_stats=True)\n","      (conv2): Conv2d(256, 256, kernel_size=(3, 3), stride=(1, 1), padding=(1, 1), bias=False)\n","      (bn2): BatchNorm2d(256, eps=1e-05, momentum=0.1, affine=True, track_running_stats=True)\n","      (conv3): Conv2d(256, 1024, kernel_size=(1, 1), stride=(1, 1), bias=False)\n","      (bn3): BatchNorm2d(1024, eps=1e-05, momentum=0.1, affine=True, track_running_stats=True)\n","      (relu): ReLU(inplace=True)\n","    )\n","    (2): Bottleneck(\n","      (conv1): Conv2d(1024, 256, kernel_size=(1, 1), stride=(1, 1), bias=False)\n","      (bn1): BatchNorm2d(256, eps=1e-05, momentum=0.1, affine=True, track_running_stats=True)\n","      (conv2): Conv2d(256, 256, kernel_size=(3, 3), stride=(1, 1), padding=(1, 1), bias=False)\n","      (bn2): BatchNorm2d(256, eps=1e-05, momentum=0.1, affine=True, track_running_stats=True)\n","      (conv3): Conv2d(256, 1024, kernel_size=(1, 1), stride=(1, 1), bias=False)\n","      (bn3): BatchNorm2d(1024, eps=1e-05, momentum=0.1, affine=True, track_running_stats=True)\n","      (relu): ReLU(inplace=True)\n","    )\n","    (3): Bottleneck(\n","      (conv1): Conv2d(1024, 256, kernel_size=(1, 1), stride=(1, 1), bias=False)\n","      (bn1): BatchNorm2d(256, eps=1e-05, momentum=0.1, affine=True, track_running_stats=True)\n","      (conv2): Conv2d(256, 256, kernel_size=(3, 3), stride=(1, 1), padding=(1, 1), bias=False)\n","      (bn2): BatchNorm2d(256, eps=1e-05, momentum=0.1, affine=True, track_running_stats=True)\n","      (conv3): Conv2d(256, 1024, kernel_size=(1, 1), stride=(1, 1), bias=False)\n","      (bn3): BatchNorm2d(1024, eps=1e-05, momentum=0.1, affine=True, track_running_stats=True)\n","      (relu): ReLU(inplace=True)\n","    )\n","    (4): Bottleneck(\n","      (conv1): Conv2d(1024, 256, kernel_size=(1, 1), stride=(1, 1), bias=False)\n","      (bn1): BatchNorm2d(256, eps=1e-05, momentum=0.1, affine=True, track_running_stats=True)\n","      (conv2): Conv2d(256, 256, kernel_size=(3, 3), stride=(1, 1), padding=(1, 1), bias=False)\n","      (bn2): BatchNorm2d(256, eps=1e-05, momentum=0.1, affine=True, track_running_stats=True)\n","      (conv3): Conv2d(256, 1024, kernel_size=(1, 1), stride=(1, 1), bias=False)\n","      (bn3): BatchNorm2d(1024, eps=1e-05, momentum=0.1, affine=True, track_running_stats=True)\n","      (relu): ReLU(inplace=True)\n","    )\n","    (5): Bottleneck(\n","      (conv1): Conv2d(1024, 256, kernel_size=(1, 1), stride=(1, 1), bias=False)\n","      (bn1): BatchNorm2d(256, eps=1e-05, momentum=0.1, affine=True, track_running_stats=True)\n","      (conv2): Conv2d(256, 256, kernel_size=(3, 3), stride=(1, 1), padding=(1, 1), bias=False)\n","      (bn2): BatchNorm2d(256, eps=1e-05, momentum=0.1, affine=True, track_running_stats=True)\n","      (conv3): Conv2d(256, 1024, kernel_size=(1, 1), stride=(1, 1), bias=False)\n","      (bn3): BatchNorm2d(1024, eps=1e-05, momentum=0.1, affine=True, track_running_stats=True)\n","      (relu): ReLU(inplace=True)\n","    )\n","  )\n","  (layer4): Sequential(\n","    (0): Bottleneck(\n","      (conv1): Conv2d(1024, 512, kernel_size=(1, 1), stride=(1, 1), bias=False)\n","      (bn1): BatchNorm2d(512, eps=1e-05, momentum=0.1, affine=True, track_running_stats=True)\n","      (conv2): Conv2d(512, 512, kernel_size=(3, 3), stride=(1, 1), padding=(1, 1), bias=False)\n","      (bn2): BatchNorm2d(512, eps=1e-05, momentum=0.1, affine=True, track_running_stats=True)\n","      (conv3): Conv2d(512, 2048, kernel_size=(1, 1), stride=(1, 1), bias=False)\n","      (bn3): BatchNorm2d(2048, eps=1e-05, momentum=0.1, affine=True, track_running_stats=True)\n","      (relu): ReLU(inplace=True)\n","      (downsample): Sequential(\n","        (0): Conv2d(1024, 2048, kernel_size=(1, 1), stride=(1, 1), bias=False)\n","        (1): BatchNorm2d(2048, eps=1e-05, momentum=0.1, affine=True, track_running_stats=True)\n","      )\n","    )\n","    (1): Bottleneck(\n","      (conv1): Conv2d(2048, 512, kernel_size=(1, 1), stride=(1, 1), bias=False)\n","      (bn1): BatchNorm2d(512, eps=1e-05, momentum=0.1, affine=True, track_running_stats=True)\n","      (conv2): Conv2d(512, 512, kernel_size=(3, 3), stride=(1, 1), padding=(1, 1), bias=False)\n","      (bn2): BatchNorm2d(512, eps=1e-05, momentum=0.1, affine=True, track_running_stats=True)\n","      (conv3): Conv2d(512, 2048, kernel_size=(1, 1), stride=(1, 1), bias=False)\n","      (bn3): BatchNorm2d(2048, eps=1e-05, momentum=0.1, affine=True, track_running_stats=True)\n","      (relu): ReLU(inplace=True)\n","    )\n","    (2): Bottleneck(\n","      (conv1): Conv2d(2048, 512, kernel_size=(1, 1), stride=(1, 1), bias=False)\n","      (bn1): BatchNorm2d(512, eps=1e-05, momentum=0.1, affine=True, track_running_stats=True)\n","      (conv2): Conv2d(512, 512, kernel_size=(3, 3), stride=(1, 1), padding=(1, 1), bias=False)\n","      (bn2): BatchNorm2d(512, eps=1e-05, momentum=0.1, affine=True, track_running_stats=True)\n","      (conv3): Conv2d(512, 2048, kernel_size=(1, 1), stride=(1, 1), bias=False)\n","      (bn3): BatchNorm2d(2048, eps=1e-05, momentum=0.1, affine=True, track_running_stats=True)\n","      (relu): ReLU(inplace=True)\n","    )\n","  )\n","  (avgpool): AdaptiveAvgPool2d(output_size=(1, 1))\n","  (fc): Linear(in_features=2048, out_features=2, bias=True)\n",")\n"]}]},{"cell_type":"code","source":["#옵티마이저와 손실 함수, 스케쥴러 정의\n","from torch.optim import lr_scheduler\n","\n","optimizer = optim.Adam(model.parameters(), lr=1e-7)\n","scheduler = lr_scheduler.StepLR(optimizer, step_size=7, gamma=0.1)\n","criterion = nn.CrossEntropyLoss()\n","\n","model = model.to(device)\n","criterion = criterion.to(device)"],"met
…
